…
Line #
Log Message
2.6s
1
WARNING:tensorflow:From /opt/conda/lib/python3.6/site-packages/tensorflow/python/ops/resource_variable_ops.py:435: colocate_with (from tensorflow.python.framework.ops) is deprecated and will be removed in a future version.
Instructions for updating:
Colocations handled automatically by placer.
3.0s
2
(?, 42, 77, 192)
3.5s
3
_________________________________________________________________
Layer (type)                 Output Shape              Param #   
=================================================================
3.5s
4
input_1 (InputLayer)         (None, 360, 640, 3)       0         
_________________________________________________________________
conv2d (Conv2D)              (None, 179, 319, 32)      896       
_________________________________________________________________
batch_normalization_v1 (Batc (None, 179, 319, 32)      128       
_________________________________________________________________
leaky_re_lu_1 (LeakyReLU)    (None, 179, 319, 32)      0         
_________________________________________________________________
conv2d_1 (Conv2D)            (None, 177, 317, 64)      18496     
_________________________________________________________________
batch_normalization_v1_1 (Ba (None, 177, 317, 64)      256       
_________________________________________________________________
leaky_re_lu_2 (LeakyReLU)    (None, 177, 317, 64)      0         
_________________________________________________________________
conv2d_2 (Conv2D)            (None, 175, 315, 64)      36928     
_________________________________________________________________
batch_normalization_v1_2 (Ba (None, 175, 315, 64)      256       
_________________________________________________________________
leaky_re_lu_3 (LeakyReLU)    (None, 175, 315, 64)      0         
_________________________________________________________________
max_pooling2d (MaxPooling2D) (None, 87, 157, 64)       0         
_________________________________________________________________
conv2d_3 (Conv2D)            (None, 87, 157, 80)       5200      
_________________________________________________________________
batch_normalization_v1_3 (Ba (None, 87, 157, 80)       320       
_________________________________________________________________
leaky_re_lu_4 (LeakyReLU)    (None, 87, 157, 80)       0         
_________________________________________________________________
conv2d_4 (Conv2D)            (None, 85, 155, 192)      138432    
_________________________________________________________________
batch_normalization_v1_4 (Ba (None, 85, 155, 192)      768       
_________________________________________________________________
leaky_re_lu_5 (LeakyReLU)    (None, 85, 155, 192)      0         
_________________________________________________________________
max_pooling2d_1 (MaxPooling2 (None, 42, 77, 192)       0         
_________________________________________________________________
conv2d_5 (Conv2D)            (None, 42, 77, 32)        55328     
_________________________________________________________________
batch_normalization_v1_5 (Ba (None, 42, 77, 32)        128       
_________________________________________________________________
leaky_re_lu_6 (LeakyReLU)    (None, 42, 77, 32)        0         
_________________________________________________________________
conv2d_6 (Conv2D)            (None, 42, 77, 64)        18496     
_________________________________________________________________
batch_normalization_v1_6 (Ba (None, 42, 77, 64)        256       
_________________________________________________________________
leaky_re_lu_7 (LeakyReLU)    (None, 42, 77, 64)        0         
_________________________________________________________________
conv2d_7 (Conv2D)            (None, 42, 77, 64)        36928     
_________________________________________________________________
batch_normalization_v1_7 (Ba (None, 42, 77, 64)        256       
_________________________________________________________________
leaky_re_lu_8 (LeakyReLU)    (None, 42, 77, 64)        0         
_________________________________________________________________
max_pooling2d_2 (MaxPooling2 (None, 20, 38, 64)        0         
_________________________________________________________________
conv2d_8 (Conv2D)            (None, 20, 38, 32)        18464     
_________________________________________________________________
batch_normalization_v1_8 (Ba (None, 20, 38, 32)        128       
_________________________________________________________________
leaky_re_lu_9 (LeakyReLU)    (None, 20, 38, 32)        0         
_________________________________________________________________
conv2d_9 (Conv2D)            (None, 20, 38, 64)        18496     
_________________________________________________________________
batch_normalization_v1_9 (Ba (None, 20, 38, 64)        256       
_________________________________________________________________
leaky_re_lu_10 (LeakyReLU)   (None, 20, 38, 64)        0         
_________________________________________________________________
conv2d_10 (Conv2D)           (None, 20, 38, 64)        36928     
_________________________________________________________________
batch_normalization_v1_10 (B (None, 20, 38, 64)        256       
_________________________________________________________________
leaky_re_lu_11 (LeakyReLU)   (None, 20, 38, 64)        0         
_________________________________________________________________
max_pooling2d_3 (MaxPooling2 (None, 9, 18, 64)         0         
_________________________________________________________________
conv2d_11 (Conv2D)           (None, 1, 1, 4)           41476     
_________________________________________________________________
flatten (Flatten)            (None, 4)                 0         
=================================================================
Total params: 429,076
Trainable params: 427,572
Non-trainable params: 1,504
_________________________________________________________________
3.6s
5
WARNING:tensorflow:From /opt/conda/lib/python3.6/site-packages/tensorflow/python/keras/utils/losses_utils.py:170: to_float (from tensorflow.python.ops.math_ops) is deprecated and will be removed in a future version.
…
