Time
Line #
Log Message
5.5s
1
__________________________________________________________________________________________________
Layer (type)                    Output Shape         Param #     Connected to                     
==================================================================================================
5.5s
2
input_1 (InputLayer)            (None, 360, 640, 3)  0                                            
__________________________________________________________________________________________________
conv2d (Conv2D)                 (None, 179, 319, 32) 896         input_1[0][0]                    
__________________________________________________________________________________________________
batch_normalization (BatchNorma (None, 179, 319, 32) 128         conv2d[0][0]                     
__________________________________________________________________________________________________
leaky_re_lu_1 (LeakyReLU)       (None, 179, 319, 32) 0           batch_normalization[0][0]        
__________________________________________________________________________________________________
conv2d_1 (Conv2D)               (None, 177, 317, 64) 18496       leaky_re_lu_1[0][0]              
__________________________________________________________________________________________________
batch_normalization_1 (BatchNor (None, 177, 317, 64) 256         conv2d_1[0][0]                   
__________________________________________________________________________________________________
leaky_re_lu_2 (LeakyReLU)       (None, 177, 317, 64) 0           batch_normalization_1[0][0]      
__________________________________________________________________________________________________
conv2d_2 (Conv2D)               (None, 175, 315, 64) 36928       leaky_re_lu_2[0][0]              
__________________________________________________________________________________________________
batch_normalization_2 (BatchNor (None, 175, 315, 64) 256         conv2d_2[0][0]                   
__________________________________________________________________________________________________
leaky_re_lu_3 (LeakyReLU)       (None, 175, 315, 64) 0           batch_normalization_2[0][0]      
__________________________________________________________________________________________________
max_pooling2d (MaxPooling2D)    (None, 87, 157, 64)  0           leaky_re_lu_3[0][0]              
__________________________________________________________________________________________________
conv2d_5 (Conv2D)               (None, 87, 157, 64)  4160        max_pooling2d[0][0]              
__________________________________________________________________________________________________
batch_normalization_5 (BatchNor (None, 87, 157, 64)  256         conv2d_5[0][0]                   
__________________________________________________________________________________________________
leaky_re_lu_6 (LeakyReLU)       (None, 87, 157, 64)  0           batch_normalization_5[0][0]      
__________________________________________________________________________________________________
conv2d_6 (Conv2D)               (None, 87, 157, 48)  3120        leaky_re_lu_6[0][0]              
__________________________________________________________________________________________________
conv2d_8 (Conv2D)               (None, 87, 157, 64)  36928       max_pooling2d[0][0]              
__________________________________________________________________________________________________
batch_normalization_6 (BatchNor (None, 87, 157, 48)  192         conv2d_6[0][0]                   
__________________________________________________________________________________________________
batch_normalization_8 (BatchNor (None, 87, 157, 64)  256         conv2d_8[0][0]                   
__________________________________________________________________________________________________
leaky_re_lu_7 (LeakyReLU)       (None, 87, 157, 48)  0           batch_normalization_6[0][0]      
__________________________________________________________________________________________________
leaky_re_lu_9 (LeakyReLU)       (None, 87, 157, 64)  0           batch_normalization_8[0][0]      
__________________________________________________________________________________________________
average_pooling2d (AveragePooli (None, 87, 157, 64)  0           max_pooling2d[0][0]              
__________________________________________________________________________________________________
conv2d_7 (Conv2D)               (None, 87, 157, 64)  27712       leaky_re_lu_7[0][0]              
__________________________________________________________________________________________________
conv2d_9 (Conv2D)               (None, 87, 157, 48)  27696       leaky_re_lu_9[0][0]              
__________________________________________________________________________________________________
conv2d_10 (Conv2D)              (None, 87, 157, 64)  102464      max_pooling2d[0][0]              
__________________________________________________________________________________________________
conv2d_11 (Conv2D)              (None, 87, 157, 64)  36928       average_pooling2d[0][0]          
__________________________________________________________________________________________________
batch_normalization_7 (BatchNor (None, 87, 157, 64)  256         conv2d_7[0][0]                   
__________________________________________________________________________________________________
batch_normalization_9 (BatchNor (None, 87, 157, 48)  192         conv2d_9[0][0]                   
__________________________________________________________________________________________________
batch_normalization_10 (BatchNo (None, 87, 157, 64)  256         conv2d_10[0][0]                  
__________________________________________________________________________________________________
5.5s
3
batch_normalization_11 (BatchNo (None, 87, 157, 64)  256         conv2d_11[0][0]                  
__________________________________________________________________________________________________
leaky_re_lu_8 (LeakyReLU)       (None, 87, 157, 64)  0           batch_normalization_7[0][0]      
__________________________________________________________________________________________________
leaky_re_lu_10 (LeakyReLU)      (None, 87, 157, 48)  0           batch_normalization_9[0][0]      
__________________________________________________________________________________________________
leaky_re_lu_11 (LeakyReLU)      (None, 87, 157, 64)  0           batch_normalization_10[0][0]     
__________________________________________________________________________________________________
leaky_re_lu_12 (LeakyReLU)      (None, 87, 157, 64)  0           batch_normalization_11[0][0]     
__________________________________________________________________________________________________
concatenate (Concatenate)       (None, 87, 157, 240) 0           leaky_re_lu_8[0][0]              
                                                                 leaky_re_lu_10[0][0]             
                                                                 leaky_re_lu_11[0][0]             
                                                                 leaky_re_lu_12[0][0]             
__________________________________________________________________________________________________
conv2d_15 (Conv2D)              (None, 87, 157, 64)  384064      concatenate[0][0]                
__________________________________________________________________________________________________
batch_normalization_15 (BatchNo (None, 87, 157, 64)  256         conv2d_15[0][0]                  
__________________________________________________________________________________________________
conv2d_12 (Conv2D)              (None, 87, 157, 48)  103728      concatenate[0][0]                
__________________________________________________________________________________________________
leaky_re_lu_16 (LeakyReLU)      (None, 87, 157, 64)  0           batch_normalization_15[0][0]     
__________________________________________________________________________________________________
batch_normalization_12 (BatchNo (None, 87, 157, 48)  192         conv2d_12[0][0]                  
__________________________________________________________________________________________________
conv2d_16 (Conv2D)              (None, 43, 78, 64)   36928       leaky_re_lu_16[0][0]             
__________________________________________________________________________________________________
leaky_re_lu_13 (LeakyReLU)      (None, 87, 157, 48)  0           batch_normalization_12[0][0]     
__________________________________________________________________________________________________
batch_normalization_16 (BatchNo (None, 43, 78, 64)   256         conv2d_16[0][0]                  
__________________________________________________________________________________________________
max_pooling2d_2 (MaxPooling2D)  (None, 43, 78, 48)   0           leaky_re_lu_13[0][0]             
__________________________________________________________________________________________________
leaky_re_lu_17 (LeakyReLU)      (None, 43, 78, 64)   0           batch_normalization_16[0][0]     
__________________________________________________________________________________________________
average_pooling2d_1 (AveragePoo (None, 43, 78, 240)  0           concatenate[0][0]                
__________________________________________________________________________________________________
max_pooling2d_3 (MaxPooling2D)  (None, 43, 78, 240)  0           concatenate[0][0]                
__________________________________________________________________________________________________
conv2d_13 (Conv2D)              (None, 43, 78, 128)  55424       max_pooling2d_2[0][0]            
__________________________________________________________________________________________________
conv2d_17 (Conv2D)              (None, 43, 78, 128)  204928      leaky_re_lu_17[0][0]             
__________________________________________________________________________________________________
conv2d_20 (Conv2D)              (None, 43, 78, 64)   15424       average_pooling2d_1[0][0]        
__________________________________________________________________________________________________
conv2d_22 (Conv2D)              (None, 43, 78, 64)   15424       max_pooling2d_3[0][0]            
__________________________________________________________________________________________________
batch_normalization_13 (BatchNo (None, 43, 78, 128)  512         conv2d_13[0][0]                  
__________________________________________________________________________________________________
batch_normalization_17 (BatchNo (None, 43, 78, 128)  512         conv2d_17[0][0]                  
__________________________________________________________________________________________________
batch_normalization_20 (BatchNo (None, 43, 78, 64)   256         conv2d_20[0][0]                  
__________________________________________________________________________________________________
batch_normalization_22 (BatchNo (None, 43, 78, 64)   256         conv2d_22[0][0]                  
__________________________________________________________________________________________________
leaky_re_lu_14 (LeakyReLU)      (None, 43, 78, 128)  0           batch_normalization_13[0][0]     
__________________________________________________________________________________________________
leaky_re_lu_18 (LeakyReLU)      (None, 43, 78, 128)  0           batch_normalization_17[0][0]     
__________________________________________________________________________________________________
leaky_re_lu_21 (LeakyReLU)      (None, 43, 78, 64)   0           batch_normalization_20[0][0]     
__________________________________________________________________________________________________
leaky_re_lu_23 (LeakyReLU)      (None, 43, 78, 64)   0           batch_normalization_22[0][0]     
__________________________________________________________________________________________________
conv2d_14 (Conv2D)              (None, 43, 78, 256)  295168      leaky_re_lu_14[0][0]             
__________________________________________________________________________________________________
conv2d_18 (Conv2D)              (None, 43, 78, 128)  409728      leaky_re_lu_18[0][0]             
__________________________________________________________________________________________________
conv2d_19 (Conv2D)              (None, 43, 78, 64)   138304      concatenate[0][0]                
__________________________________________________________________________________________________
conv2d_21 (Conv2D)              (None, 43, 78, 64)   36928       leaky_re_lu_21[0][0]             
__________________________________________________________________________________________________
conv2d_23 (Conv2D)              (None, 43, 78, 64)   4160        leaky_re_lu_23[0][0]             
__________________________________________________________________________________________________
batch_normalization_14 (BatchNo (None, 43, 78, 256)  1024        conv2d_14[0][0]                  
__________________________________________________________________________________________________
batch_normalization_18 (BatchNo (None, 43, 78, 128)  512         conv2d_18[0][0]                  
__________________________________________________________________________________________________
batch_normalization_19 (BatchNo (None, 43, 78, 64)   256         conv2d_19[0][0]                  
__________________________________________________________________________________________________
batch_normalization_21 (BatchNo (None, 43, 78, 64)   256         conv2d_21[0][0]                  
__________________________________________________________________________________________________
batch_normalization_23 (BatchNo (None, 43, 78, 64)   256         conv2d_23[0][0]                  
__________________________________________________________________________
5.5s
4
________________________
leaky_re_lu_15 (LeakyReLU)      (None, 43, 78, 256)  0           batch_normalization_14[0][0]     
__________________________________________________________________________________________________
leaky_re_lu_19 (LeakyReLU)      (None, 43, 78, 128)  0           batch_normalization_18[0][0]     
__________________________________________________________________________________________________
leaky_re_lu_20 (LeakyReLU)      (None, 43, 78, 64)   0           batch_normalization_19[0][0]     
__________________________________________________________________________________________________
leaky_re_lu_22 (LeakyReLU)      (None, 43, 78, 64)   0           batch_normalization_21[0][0]     
__________________________________________________________________________________________________
leaky_re_lu_24 (LeakyReLU)      (None, 43, 78, 64)   0           batch_normalization_23[0][0]     
__________________________________________________________________________________________________
concatenate_1 (Concatenate)     (None, 43, 78, 576)  0           leaky_re_lu_15[0][0]             
                                                                 leaky_re_lu_19[0][0]             
                                                                 leaky_re_lu_20[0][0]             
                                                                 leaky_re_lu_22[0][0]             
                                                                 leaky_re_lu_24[0][0]             
__________________________________________________________________________________________________
conv2d_24 (Conv2D)              (None, 43, 78, 128)  663680      concatenate_1[0][0]              
__________________________________________________________________________________________________
batch_normalization_24 (BatchNo (None, 43, 78, 128)  512         conv2d_24[0][0]                  
__________________________________________________________________________________________________
leaky_re_lu_25 (LeakyReLU)      (None, 43, 78, 128)  0           batch_normalization_24[0][0]     
__________________________________________________________________________________________________
conv2d_25 (Conv2D)              (None, 43, 78, 256)  295168      leaky_re_lu_25[0][0]             
__________________________________________________________________________________________________
batch_normalization_25 (BatchNo (None, 43, 78, 256)  1024        conv2d_25[0][0]                  
__________________________________________________________________________________________________
leaky_re_lu_26 (LeakyReLU)      (None, 43, 78, 256)  0           batch_normalization_25[0][0]     
__________________________________________________________________________________________________
conv2d_26 (Conv2D)              (None, 43, 78, 128)  295040      leaky_re_lu_26[0][0]             
__________________________________________________________________________________________________
batch_normalization_26 (BatchNo (None, 43, 78, 128)  512         conv2d_26[0][0]                  
__________________________________________________________________________________________________
leaky_re_lu_27 (LeakyReLU)      (None, 43, 78, 128)  0           batch_normalization_26[0][0]     
__________________________________________________________________________________________________
max_pooling2d_4 (MaxPooling2D)  (None, 21, 38, 128)  0           leaky_re_lu_27[0][0]             
__________________________________________________________________________________________________
conv2d_27 (Conv2D)              (None, 21, 38, 64)   73792       max_pooling2d_4[0][0]            
__________________________________________________________________________________________________
batch_normalization_27 (BatchNo (None, 21, 38, 64)   256         conv2d_27[0][0]                  
__________________________________________________________________________________________________
leaky_re_lu_28 (LeakyReLU)      (None, 21, 38, 64)   0           batch_normalization_27[0][0]     
__________________________________________________________________________________________________
conv2d_28 (Conv2D)              (None, 21, 38, 128)  73856       leaky_re_lu_28[0][0]             
__________________________________________________________________________________________________
batch_normalization_28 (BatchNo (None, 21, 38, 128)  512         conv2d_28[0][0]                  
__________________________________________________________________________________________________
leaky_re_lu_29 (LeakyReLU)      (None, 21, 38, 128)  0           batch_normalization_28[0][0]     
__________________________________________________________________________________________________
conv2d_29 (Conv2D)              (None, 21, 38, 64)   73792       leaky_re_lu_29[0][0]             
__________________________________________________________________________________________________
batch_normalization_29 (BatchNo (None, 21, 38, 64)   256         conv2d_29[0][0]                  
__________________________________________________________________________________________________
leaky_re_lu_30 (LeakyReLU)      (None, 21, 38, 64)   0           batch_normalization_29[0][0]     
__________________________________________________________________________________________________
max_pooling2d_5 (MaxPooling2D)  (None, 10, 18, 64)   0           leaky_re_lu_30[0][0]             
__________________________________________________________________________________________________
conv2d_30 (Conv2D)              (None, 10, 18, 64)   36928       max_pooling2d_5[0][0]            
__________________________________________________________________________________________________
batch_normalization_30 (BatchNo (None, 10, 18, 64)   256         conv2d_30[0][0]                  
__________________________________________________________________________________________________
leaky_re_lu_31 (LeakyReLU)      (None, 10, 18, 64)   0           batch_normalization_30[0][0]     
__________________________________________________________________________________________________
conv2d_31 (Conv2D)              (None, 10, 18, 128)  73856       leaky_re_lu_31[0][0]             
__________________________________________________________________________________________________
batch_normalization_31 (BatchNo (None, 10, 18, 128)  512         conv2d_31[0][0]                  
__________________________________________________________________________________________________
leaky_re_lu_32 (LeakyReLU)      (None, 10, 18, 128)  0           batch_normalization_31[0][0]     
__________________________________________________________________________________________________
conv2d_32 (Conv2D)              (None, 10, 18, 128)  147584      leaky_re_lu_32[0][0]             
__________________________________________________________________________________________________
batch_normalization_32 (BatchNo (None, 10, 18, 128)  512         conv2d_32[0][0]                  
__________________________________________________________________________________________________
leaky_re_lu_33 (LeakyReLU)      (None, 10, 18, 128)  0           batch_normalization_32[0][0]     
__________________________________________________________________________________________________
conv2d_33 (Conv2D)              (None, 1, 1, 32)     737312      leaky_re_lu_33[0][0]             
__________________________________________________________________________________________________
conv2d_34 (Conv2D)              (None, 1, 1, 4)      132         conv2d_33[0][0]                  
__________________________________________________________________________________________________
flatten (Flatten)               (None, 4)            0           conv2d_34[0][0]                  
==================================================================================================
5.5s
5
Total params: 4,477,876
Trainable params: 4,472,276
Non-trainable params: 5,600
__________________________________________________________________________________________________
11.7s
6
Epoch 1/25
12.1s
7
2019-03-16 10:00:20.339359: I tensorflow/stream_executor/cuda/cuda_gpu_executor.cc:964] successful NUMA node read from SysFS had negative value (-1), but there must be at least one NUMA node, so returning NUMA node zero
…
